model/fixed_len_models/counting_seq200.pt (torch_old, 19085 bytes, 6 tensors)

weight_ih_l0 f4 [40, 1]
000000 03 12 13 3e 77 3f 72 be cd 9f d9 bd a8 60 c4 3d
       0.1436234 -0.23657022 -0.10626183 0.09588748
000010 14 81 94 be c5 7c 41 3e 3d 67 a7 bd 8a 75 10 3e
       -0.2900473 0.18895252 -0.08173988 0.14107338
000020 80 62 0e 3e 9f e7 5c 3d 8f 7c a2 3d d8 e9 b6 bd
       0.13904762 0.05393183 0.07933914 -0.08931321
000030 c8 54 a5 3d d9 43 3b be fd b1 9b 3c b6 7b ec bc
       0.08072811 -0.182876 0.01900577 -0.028867584
000040 4c 65 35 3d 9e cc ee bc 65 5c 1a 3f 85 b1 e9 3e
       0.044286057 -0.029150303 0.6029723 0.4564325
000050 08 7f 20 3f d9 63 3d bd a8 68 e7 be 95 54 85 bd
       0.62693834 -0.0462378 -0.45197034 -0.06510273
000060 49 58 da be c2 30 23 3d d3 3d b8 3e 19 5a 2c 3e
       -0.4264548 0.03984142 0.35984668 0.16831245
000070 40 7e 8f bf df 47 a5 3f 13 e1 a9 3d 26 a5 39 3e
       -1.1210403 1.2912558 0.082948826 0.18129405
000080 9c 7b 3d 3e a2 a9 bc be 24 42 8d be 95 f7 1c be
       0.18504184 -0.3684817 -0.27589524 -0.1532882
000090 4d d5 8a 3e 18 e7 bb bd a4 bb b6 3e 66 84 fb 3d
       0.2711586 -0.09174937 0.35690033 0.122811124

weight_hh_l0 f4 [40, 10]
000000 36 bb a0 3e 80 e8 f4 bd 07 85 73 3e 71 1d b2 3b
       0.3139283 -0.11958408 0.23781215 0.0054356386
000010 b4 0c 28 be 1f e8 26 3e df 18 26 be 8e d9 ca 3d
       -0.16411096 0.16299485 -0.16220425 0.099047765
000020 1e 57 c8 bd 14 77 d8 bc f5 e0 96 be 65 51 00 be
       -0.09782241 -0.026423968 -0.29468504 -0.1253105
000030 d3 6f 3e 3e b6 42 86 bd 68 80 a8 3e 6e 98 81 3e
       0.18597345 -0.06555693 0.32910466 0.25311607
000040 59 b2 4d bc 9a da 55 be b1 ea 49 3e f5 3f d0 3d
       -0.012554728 -0.20884171 0.19718434 0.10168449
000050 2f 19 54 be 74 c7 50 3e f3 9f 4c 3e fd fe 91 3e
       -0.20712732 0.20388585 0.19982891 0.28514853
000060 79 ab 28 be 55 6f 5c bd f7 ee 35 bc c5 8e 2e 3d
       -0.16471662 -0.053817112 -0.011104337 0.042616624
000070 57 7b 66 be 81 97 74 be 29 0e 2b 3e 27 a3 8d bd
       -0.22507988 -0.23885919 0.1670462 -0.069158845
000080 b8 ab 24 3e a7 c4 9f 3c 40 d9 e6 3d 32 a5 8d 3d
       0.1608113 0.01950295 0.11271906 0.06916274
000090 3b ec e7 3d ab fe 21 3e d8 d7 8e be 12 f9 16 3e
       0.11324354 0.15819804 -0.2789905 0.1474345
0000a0 cf 63 60 be d6 cd 78 be 46 74 bd 3c 93 66 4e bd
       -0.21913074 -0.2429727 0.023126733 -0.05039079
0000b0 ff ef 43 3e 42 09 3d be ea c7 90 be f5 f8 68 3e
       0.1913452 -0.18460563 -0.28277522 0.2275122
0000c0 66 45 48 bd 58 60 34 3e cf 47 d0 3d 47 19 73 be
       -0.04889431 0.17614877 0.101699464 -0.23740111
0000d0 bb cd 82 3d 33 0d 9c 3d e1 5c 58 be 34 bc 19 be
       0.06386896 0.07619705 -0.2112918 -0.150132
0000e0 43 5b dc 3d cd fc 66 3d 0b 5c 09 be 5c 03 c5 bd
       0.10759594 0.056393433 -0.13414018 -0.096197814
0000f0 6f 3c 94 3e fb 6d 83 bd d5 f6 3a 3e e8 c9 0e 3e
       0.28952357 -0.064174615 0.18258221 0.13944209
000100 44 72 4c be 29 32 8a be 45 46 99 3e aa 6d 44 3c
       -0.19965464 -0.26991394 0.29936424 0.011989037
000110 81 fd 64 3e 3c d2 6e 3d 03 cb be 3d ce 3e 75 3e
       0.22362329 0.058305964 0.09316065 0.2394974
000120 ab 0f 99 3e 24 bb 5a be df 34 2d 3d 0c 13 72 3e
       0.29894766 -0.21360451 0.04228675 0.23640078
000130 10 f3 6b 3e 14 a0 4e 3e ce 44 62 be 04 36 71 be
       0.2304194 0.20178252 -0.2209656 -0.23555762
000140 28 60 0c be c3 8f a9 3a c9 6a a4 3e bf 27 34 be
       -0.13708556 0.0012936521 0.3211272 -0.17593287
000150 f6 3e 23 3e 54 58 38 be 2e b7 9d be e4 36 d4 bd
       0.15941986 -0.18002445 -0.30803818 -0.10362032
000160 86 d7 ff 3d 0d ab ae 3e c6 03 fa bd 48 63 b4 3c
       0.1249228 0.34114876 -0.12207751 0.022019997
000170 61 e9 92 3e 02 0e 7c 3e 1a ec 45 3e 0f 08 5e 3e
       0.2869368 0.24614719 0.19328347 0.21682762
000180 da 7f 3d 3e 59 f6 06 3d d6 f5 93 be 5f 63 53 be
       0.18505803 0.03294978 -0.28898495 -0.20643376
000190 cc 1e 10 be 9e f0 b0 bc 30 cd 44 be 3d a9 f1 3d
       -0.14074248 -0.02159911 -0.19218898 0.11799858
0001a0 0e de cf 3d ab db 91 bd 70 6a 02 3e 05 19 de 3d
       0.101497754 -0.071219765 0.12735915 0.10844616
0001b0 ad 29 3f 3e 58 7a 62 3e 54 05 cb bd be ef aa 3e
       0.18668242 0.22116983 -0.09913126 0.33386034
0001c0 1b 23 bb bc 60 ea db b9 c0 de 91 be 1c ac 50 be
       -0.022843888 -0.00041945558 -0.28490257 -0.20378155
0001d0 fe 05 3b be b3 ed 07 be e8 3b 6c 3e a1 eb ce bd
       -0.18264005 -0.13274269 0.23069727 -0.101035364
0001e0 c1 11 74 be 45 9d f3 3d 66 85 e3 3d 5f 70 57 3e
       -0.23834898 0.11895231 0.11109428 0.2103896
0001f0 29 d3 18 be af ff 87 3d 98 04 f8 bd 55 42 9a bd
       -0.14924301 0.06640565 -0.12110251 -0.07532183
000200 79 9a 72 be f4 45 23 be b9 8f d3 bd e5 c1 0f 3e
       -0.23691739 -0.15944654 -0.10330147 0.14038809
000210 4d 17 81 3d f5 b4 a0 3d 06 c3 a5 3e 28 b8 9d 3e
       0.063032724 0.07847015 0.32375354 0.30804563
000220 18 82 5b 3e ec 9e 4b 3c da 1c 51 be 2c 5b 70 3e
       0.21436346 0.012428027 -0.20421162 0.2347228
000230 94 06 9b bd 66 e4 fd bc d5 12 88 be a2 95 68 bd
       -0.07569614 -0.030992698 -0.26576868 -0.056783326
000240 9e cd 46 be 95 9f 93 3e e8 72 8d be f9 4a 80 be
       -0.19414374 0.2883269 -0.2762673 -0.250572
000250 17 c8 26 bc 77 a5 34 be de b8 e7 3d cd f3 f9 bd
       -0.010179541 -0.17641245 0.113145575 -0.122047044
000260 17 a6 17 be 39 06 95 3c 03 fe 6a 3e 79 e5 63 be
       -0.14809452 0.018191444 0.2294846 -0.22255506
000270 d7 c4 17 3e 9e bd 4f 3e 3f a6 9e 3e 0a 51 63 be
       0.14821182 0.20287177 0.3098621 -0.22198883
000280 ef 3b 9c 3d 4e 18 75 be 55 9d 8c 3e e2 bf f5 bd
       0.07628619 -0.23935053 0.27463785 -0.11999489
000290 7f 67 48 3e 4e 39 09 3c 84 ad ec bc db b2 6f bc
       0.1957073 0.008375479 -0.028891332 -0.014630045
0002a0 6c 8e 7a 3d 1e 99 10 3e 86 ce 24 3d 49 ed cc 3d
       0.06117098 0.1412091 0.04023602 0.10006196
0002b0 7d 83 92 be a7 de 66 3e 04 6b 8e 3e ee 23 86 3e
       -0.28615943 0.22545873 0.2781602 0.26199287
0002c0 70 fe 70 3e 14 29 63 be 92 7a dc bd 79 e9 89 3e
       0.2353456 -0.22183639 -0.10765566 0.26935938
0002d0 ac af 37 be 44 f0 75 3e 04 bb 6f be 3c 16 40 be
       -0.17938107 0.24017435 -0.23411185 -0.18758482
0002e0 a1 07 20 3e a9 33 71 be 0f 4d b8 bd 12 ba 39 3e
       0.1562791 -0.23554863 -0.08999073 0.18137386
0002f0 99 19 4c 3e dd c5 ac 3e a5 54 f8 3b b1 6e 97 be
       0.1993164 0.33744708 0.00757845 -0.29576638
000300 b5 c3 ac 3e 5e 7e a4 bc bd 98 eb bd 4a 90 85 3d
       0.33743063 -0.020079788 -0.11503742 0.065216616
000310 23 70 79 be 43 85 1a 3e de 96 16 3e bf 47 5e be
       -0.24359183 0.15089898 0.14705989 -0.21707056
000320 b0 19 a2 be 5a 3b d0 bd 0f e2 81 3c f7 65 bf bd
       -0.31660223 -0.101675704 0.015854863 -0.0934562
000330 ba a4 80 be cd ed 68 3c be 24 83 be b9 f3 2f be
       -0.25125676 0.014216852 -0.2561397 -0.17182817
000340 11 23 a2 be 96 59 9c 3e 53 a8 83 3e 9c e3 13 be
       -0.3166738 0.305371 0.2571436 -0.14442295
000350 81 03 c2 bb 8d 19 f8 3d f2 12 b1 3c fe 30 21 be
       -0.005920828 0.121142484 0.02161548 -0.15741345
000360 76 61 37 3e d1 60 47 3e 46 2f 7a bc ba 04 59 bd
       0.17908272 0.19470526 -0.01527006 -0.052983023
000370 72 64 40 3e d7 a9 57 3e ce 12 22 be bb 59 8f 3e
       0.18788317 0.21060883 -0.15827486 0.27998146
000380 fa 1c dd 3d 30 27 57 be b8 38 fa 3d 36 ee 81 be
       0.107965425 -0.21011043 0.122178495 -0.25377053
000390 43 9c f4 3e d7 bd c0 be 6b ca 2c 3d e6 4f b9 3c
       0.47775468 -0.37644836 0.04218523 0.022621106
0003a0 21 97 99 3d 7d 2f 78 3e db 77 f7 bd 19 b7 0b be
       0.07499529 0.24236865 -0.120834075 -0.13644065
0003b0 30 43 9a be dc d0 e9 bc fc 92 aa bd 64 19 8d bd
       -0.30129385 -0.028541975 -0.08328816 -0.068896085
0003c0 e4 97 b3 bd 26 44 e3 3c 23 1a a6 3e 7e e2 d9 3d
       -0.08769205 0.027742457 0.32441816 0.10638903
0003d0 0d e3 90 bd 9d b3 23 be 35 b3 ad be da 7b 51 3e
       -0.070745565 -0.15986486 -0.33925787 0.20457402
0003e0 3a ad 9a 3d 59 aa 62 bd 0f f8 3c 3c 59 91 2f be
       0.075525716 -0.055338237 0.011533751 -0.1714529
0003f0 a9 13 2c 3e ec 13 30 3e 6f bf 43 3c 92 dc 35 be
       0.16804375 0.171951 0.011947497 -0.17759922

bias_ih_l0 f4 [40]
000000 1c 9e 9b be 37 99 6c 3e 75 97 94 be e6 e2 28 3e
       -0.30394065 0.23105322 -0.29021803 0.16492805
000010 fd 63 44 3d 33 0d 1b 3e 3d 8c 0f be 2a ab 28 3e
       0.04794692 0.15141754 -0.1401834 0.16471544
000020 10 2a 91 3d 5a 5c 90 3c bc 9b 43 3d a7 d9 cd 3d
       0.07088101 0.017622162 0.04775594 0.100512795
000030 28 95 ae 3e ad 86 5c bd fe 02 ae 3e 83 29 52 3e
       0.34098172 -0.053839374 0.33986658 0.20523648
000040 42 47 01 be db 3b 8c be e0 50 f2 3e 7a 64 2e 3e
       -0.12624839 -0.27389416 0.47327328 0.17030516
000050 43 41 40 3e a0 c2 35 be db 08 dd 3e 6a 05 ad 3e
       0.18774895 -0.17750025 0.4317082 0.33793193
000060 48 46 ab 3e 81 b5 a7 39 1a 67 73 be a3 3e d1 bc
       0.33452058 0.00031987953 -0.23769799 -0.025542563
000070 ac 48 a1 3e b0 11 23 bf c4 e4 08 be 33 be 5d be
       0.31500757 -0.63698864 -0.13368517 -0.21654586
000080 10 e2 a4 3e ad 5a 69 3e b8 3c 9b 3e 26 31 85 3e
       0.32203722 0.22788496 0.30319762 0.2601406
000090 72 cf 88 be d7 2e 77 3d 96 37 c4 3e e0 e7 f2 3d
       -0.26720768 0.060347404 0.3832366 0.11860633

bias_hh_l0 f4 [40]
000000 db 10 96 3d 3e 13 7a be be 88 91 3d 01 fc b3 3d
       0.07327434 -0.24421403 0.071061596 0.087883
000010 dd dc 98 3e 97 0f 28 be a9 35 5f be 7a cd 88 3e
       0.29856005 -0.16412197 -0.21797813 0.26719266
000020 71 5f b8 3e 3a d4 e6 3e 68 e7 63 3d 1a f0 3c be
       0.36010316 0.4508379 0.055640608 -0.18450966
000030 49 f8 5e 3e f2 fe 97 be ba 2a a3 3d 0f 82 14 3e
       0.21774401 -0.29686695 0.07967134 0.14502738
000040 f5 91 7c 3e c0 65 40 be f0 4a a8 3d 93 97 ec 3e
       0.24665053 -0.18788815 0.08217418 0.46209392
000050 6a 76 55 be d7 8a 2d be ae c8 aa bd c3 ea b7 3d
       -0.20845953 -0.16947494 -0.08339058 0.08980324
000060 e9 fa 9e 3e 7d f8 a9 be 9b c7 15 be 15 18 72 be
       0.31050804 -0.33197394 -0.14626925 -0.23641999
000070 07 9b 01 3f e9 d2 06 bf 4f 3b 81 be 18 9a 0d 3b
       0.5062718 -0.52665573 -0.2524056 0.002160674
000080 ed f6 5c be c7 ed 38 3e 59 63 59 3e 53 40 9e be
       -0.2157857 0.18059455 0.21229304 -0.3090845
000090 8b ad 59 be 22 05 82 be a4 92 c3 3d 6d b3 c7 3e
       -0.21257608 -0.2539454 0.09549454 0.39004079

weight f4 [2, 10]
000000 0d f7 d3 be 14 34 07 bd a2 e9 29 3f 93 ba f6 3d
       -0.41399422 -0.03300865 0.6637212 0.12047305
000010 b7 d4 84 3e 87 71 87 be 73 ee 46 be 13 48 6b be
       0.2594354 -0.26453802 -0.19426899 -0.22976713
000020 91 f1 77 3f 47 2c 63 bf 9e 96 2c 3e 1e 51 ec bd
       0.96852976 -0.88739437 0.16854331 -0.115389094
000030 dd 04 c2 be c2 2f 05 be db f4 dd be aa ab 77 be
       -0.37894335 -0.130065 -0.43350872 -0.24186578
000040 ab 14 06 3f 5a 5f 7f 3e 9d 84 a6 bf 7b 69 77 3f
       0.52375287 0.24938717 -1.300922 0.96645325

bias f4 [2]
000000 d6 fc 3e 3e 8b 78 84 be
       0.18651137 -0.25873217
