model/fixed_len_models/counting_seq50.pt (torch_old, 19085 bytes, 6 tensors)

weight_ih_l0 f4 [40, 1]
0	0xbf1f6a4a	-0.6227156
1	0xbf51568b	-0.8177268
2	0x3f8bdc74	1.0926652
3	0xbed79d25	-0.4211208
4	0xc029975c	-2.6498632
5	0xbea40a2d	-0.32039014
6	0xbf225be2	-0.6342145
7	0x3d4b12bc	0.049578413
8	0xbff04b7f	-1.877304
9	0xc0c05437	-6.01028
10	0x3f04520d	0.516877
11	0xbf1d363d	-0.61410886
12	0x40c2dd01	6.089478
13	0xbf5fcbc5	-0.874203
14	0xc00e2d59	-2.2215178
15	0xbf2babab	-0.6705882
16	0x3f907b66	1.1287658
17	0xbe6c79f7	-0.23093401
18	0x40145242	2.3175206
19	0x3fe61647	1.7975549
20	0x403d9050	2.9619331
21	0x3fc85b20	1.5652809
22	0xc08d7bdd	-4.42137
23	0xbfe558f0	-1.7917767
24	0xc0cc5bc9	-6.3862042
25	0x3ffc5ab1	1.9715177
26	0x408771b0	4.232628
27	0xbe9bc6c1	-0.30425075
28	0xc115ea80	-9.369751
29	0x41993f9d	19.156061
30	0x3e94ca77	0.29060718
31	0xbefb2b21	-0.49056342
32	0x3ffd6503	1.9796451
33	0xbfc97380	-1.5738373
34	0xbfe3a849	-1.7785732
35	0xbf3ee230	-0.74563885
36	0x3f8103d0	1.0079288
37	0xbeebf5c2	-0.46085936
38	0x3f7454b1	0.9544173
39	0x3e9ef6b3	0.31047592

weight_hh_l0 f4 [40, 10]
0	0x3ef0cfc8	0.47033525
1	0xbdeb2662	-0.1148193
2	0xbf4ac242	-0.79202664
3	0xbe195f95	-0.14977868
4	0xbee86653	-0.45390567
5	0x3e9f42a3	0.31105527
6	0xbdfcfb4c	-0.123526186
7	0x3e847944	0.25873768
8	0xbe8bed38	-0.2732942
9	0xbe1889d6	-0.1489633
10	0xbe82885f	-0.25494668
11	0xbd49da31	-0.04928035
12	0x3dc557f4	0.09635916
13	0xbe0a68d8	-0.13516557
14	0x3e605129	0.2190596
15	0x3ea56a3a	0.32307607
16	0x3c7fda7f	0.015616058
17	0xbe0d7a52	-0.13816193
18	0x3e4e2a0c	0.20133227
19	0x3e435f4b	0.1907932
20	0xbf2619f0	-0.6488333
21	0x3ec702a8	0.38869214
22	0x3f7a8fc2	0.97875607
23	0x3f7eb599	0.99495846
24	0x3fa0744c	1.2535491
25	0xbeea3818	-0.4574592
26	0xbe1d3c3a	-0.15355006
27	0xbf09bcae	-0.5380353
28	0x3fd1e0df	1.639675
29	0xbf1f36b3	-0.6219284
30	0x3e1b9820	0.1519475
31	0xbd4057a2	-0.046958573
32	0xbe3402cc	-0.17579192
33	0x3a6fa3ae	0.00091415166
34	0x3da11ae1	0.07866455
35	0x3cc16b51	0.023610743
36	0x3dc72af9	0.09724993
37	0x3e44b5df	0.19210003
38	0xbe5d718e	-0.21625349
39	0x3dbc41d0	0.0919224
40	0xbf39c151	-0.725606
41	0xbe9c97de	-0.30584615
42	0x3f58587a	0.84510005
43	0x3e0e5309	0.13898863
44	0x3efe4ff1	0.49670365
45	0xbe404883	-0.18777661
46	0xbf4a0348	-0.78911257
47	0x3de316d9	0.11088342
48	0x3f139ae0	0.57658195
49	0xbfadd078	-1.3579245
50	0x3ce3639d	0.02775746
51	0xbe82ae66	-0.2552368
52	0x3d606d42	0.054791696
53	0x3da5a5c7	0.0808826
54	0xbe6ae641	-0.22939397
55	0xbe1e90c3	-0.1548491
56	0xbd1fa830	-0.038978755
57	0x3d8d1b25	0.06889943
58	0xbdeced04	-0.11568645
59	0xbede3508	-0.43399835
60	0x3ec320f9	0.38111094
61	0xbd6be334	-0.057589725
62	0x3ced1d63	0.028944677
63	0x3f085b39	0.53264195
64	0x3d22c7c3	0.03974129
65	0xbeb90f22	-0.36144358
66	0x3f934170	1.1504345
67	0xbcb14615	-0.021639863
68	0xbef5596d	-0.4791979
69	0x3dd29cd5	0.102838196
70	0x3cf9f3fd	0.03051185
71	0x3e83047e	0.25589365
72	0xbd17fabd	-0.037104357
73	0xbe664a63	-0.22489314
74	0x3c8d8d3c	0.01727926
75	0x3e824c0f	0.25448653
76	0x3e83cf73	0.2574421
77	0x3e733ece	0.23754427
78	0xbe70b58b	-0.23506753
79	0xbedb4a8c	-0.42830312
80	0xbe83673e	-0.25664705
81	0xbe904c8e	-0.28183407
82	0xbfae8ee1	-1.3637353
83	0x3f29d944	0.66347146
84	0x3eae3dca	0.34031516
85	0xbd3a6d37	-0.04551431
86	0xbe5a15d1	-0.21297385
87	0xbf53b4ec	-0.8269794
88	0xbfa5cdba	-1.2953408
89	0xbe99d37a	-0.30044156
90	0x3f7a9252	0.9787952
91	0xbe24fa81	-0.16111185
92	0x406ffc4b	3.7497737
93	0x3e0bfa7e	0.13669774
94	0x3dd4ebb3	0.103965186
95	0xbe325da7	-0.17418538
96	0x4007ee9f	2.1239393
97	0xbd202d0e	-0.039105467
98	0xbf86dd33	-1.0536255
99	0x4087bccd	4.241797
100	0xbdbc2de1	-0.09188438
101	0xbc6f4c16	-0.014605543
102	0xbf230905	-0.6368564
103	0xbd4682a6	-0.04846444
104	0xbc46ada7	-0.012126363
105	0xbb7d8b67	-0.0038687827
106	0xbd6ce8cc	-0.0578392
107	0x3e8b503d	0.27209654
108	0x3f21135a	0.62920153
109	0xbed597a9	-0.4171727
110	0xbd8d41cd	-0.06897316
111	0x3ed6cddd	0.41953936
112	0xbdb77b3a	-0.089590505
113	0xbd43fd45	-0.04784896
114	0xbec01f43	-0.3752385
115	0xbe17b88c	-0.14816493
116	0xbe126da0	-0.14299631
117	0xbd9df463	-0.07712629
118	0x3e46f6d9	0.19430102
119	0xbbf46232	-0.007457995
120	0xbe15d5f8	-0.14632404
121	0xbc88aae3	-0.016683048
122	0x4096da8e	4.714179
123	0xbf84550f	-1.0338458
124	0xc01c1a5d	-2.439109
125	0x3fd1abdf	1.6380576
126	0x40432119	3.0488951
127	0x3ec2d4e7	0.38053057
128	0x3e87ca33	0.26521453
129	0x405638f6	3.3472266
130	0xbdd5c874	-0.10438624
131	0x3e08078b	0.13284127
132	0xbe26a067	-0.16272126
133	0x3a74d407	0.0009339456
134	0x3e8782ca	0.26466972
135	0x3e8dcc0c	0.27694738
136	0x3e0d8dd8	0.1382364
137	0x3de873de	0.11350225
138	0xbcf35b42	-0.029706601
139	0x3b8c790b	0.0042868904
140	0xbebf0836	-0.37310952
141	0xbe9f311f	-0.31092164
142	0x3e0c6eee	0.13714191
143	0xbe9afe8a	-0.30272323
144	0xbef21894	-0.47284377
145	0x3ee15cdd	0.44016162
146	0xbf3c59db	-0.7357461
147	0xbcfc1241	-0.030770423
148	0x3f0ae137	0.542499
149	0xc004fe8f	-2.078037
150	0x3c1e6787	0.0096682375
151	0xbdf7bb6e	-0.12096296
152	0x3c39b4c3	0.011334601
153	0x3db03cb6	0.0860533
154	0x3eabea7d	0.33577338
155	0xbe88529b	-0.26625523
156	0xbd56c587	-0.05243447
157	0x3e181b8b	0.14854257
158	0x3eddaea9	0.43297318
159	0xbf264a79	-0.64957386
160	0x3e402778	0.18765056
161	0xbf0d19ea	-0.55117667
162	0xbedee98e	-0.43537563
163	0xbf1543c2	-0.58306515
164	0xbf2fdf2e	-0.6869992
165	0x3ee8bc61	0.45456222
166	0x3f15bfea	0.5849596
167	0x3ea01e24	0.31272995
168	0x3e073abd	0.13206
169	0x3f77149b	0.96515816
170	0xbd0ca1da	-0.03433404
171	0x3df6e62f	0.12055623
172	0xbf1948da	-0.5987679
173	0x3e444a5a	0.19168988
174	0x3e8b5cc9	0.27219227
175	0x3e8a6519	0.27030256
176	0x3e5e977c	0.21737474
177	0xbe266779	-0.16250409
178	0xbd35ca17	-0.04438218
179	0x3d4161d8	0.04721245
180	0xbf9a9612	-1.2077048
181	0xbe7e6e32	-0.24846724
182	0xbd8d6a2d	-0.06905017
183	0xbf231d69	-0.6371675
184	0xbf31a8b5	-0.6939805
185	0x3f336d42	0.7008859
186	0xbf4bff70	-0.7968664
187	0xbd3e59ae	-0.046472244
188	0x407babe1	3.9323657
189	0xc00e94ab	-2.227824
190	0xbf10803a	-0.5644566
191	0xbda6f411	-0.08152021
192	0xbef9c315	-0.48781648
193	0xbf3be803	-0.73400897
194	0xbfc0925e	-1.5044668
195	0x3f7cbdb0	0.9872694
196	0xbdb32e33	-0.08749046
197	0xbe730cac	-0.23735303
198	0x3f993bbc	1.1971354
199	0xbfe53600	-1.7907104
200	0xbf42f987	-0.76162
201	0xbe798ca4	-0.24370056
202	0x3ee89dc5	0.4543287
203	0xbf8d73d1	-1.1050969
204	0xbf8cb586	-1.0992897
205	0x3efcfd98	0.49412227
206	0x3d78f475	0.060780007
207	0x3f0953e0	0.5364361
208	0x3db2288f	0.08699142
209	0x3f809071	1.004408
210	0x3e5e1f75	0.21691687
211	0xbef65b13	-0.4811636
212	0x3eb9d320	0.36293888
213	0x3e96f2d2	0.29482132
214	0x3ef15ed6	0.47142667
215	0xbe9dc7fe	-0.30816644
216	0xbd8f660f	-0.07001888
217	0x3e1fb3d4	0.15595943
218	0x3f2ba827	0.67053455
219	0xbf78da96	-0.97208536
220	0xbff46e1a	-1.90961
221	0x3ce7b140	0.028282762
222	0x4001d951	2.028889
223	0x3f795030	0.9738798
224	0x3f9162e2	1.1358302
225	0xbf6dd018	-0.9289565
226	0xbf28d591	-0.65950876
227	0xbf236c97	-0.6383757
228	0x40ee5db8	7.4489403
229	0xc045df56	-3.0917563
230	0xbea58c79	-0.32333735
231	0xbeab3983	-0.33442315
232	0x3df28068	0.11840898
233	0x3eaa5c5d	0.33273593
234	0x3e88a6ee	0.26689857
235	0xbea75f13	-0.32689723
236	0xbefeadcb	-0.4974197
237	0xbe4c15ce	-0.19930193
238	0x3eb1b264	0.34706414
239	0xbe97f0b4	-0.2967583
240	0xbf03013e	-0.5117377
241	0xbf3614fe	-0.7112578
242	0x3fb58a26	1.4182785
243	0xbd09abc9	-0.033611093
244	0xbf33b135	-0.7019227
245	0xbe16d971	-0.14731385
246	0xc006520c	-2.0987577
247	0x3d810912	0.06300558
248	0x401367b6	2.303205
249	0xc05aa39b	-3.4162357
250	0x3e044e56	0.12920508
251	0x3e09dd92	0.13463429
252	0x3eaa8efa	0.33312207
253	0x3ea22a38	0.31672835
254	0x3eb4c159	0.35303763
255	0xbed43527	-0.41446802

bias_ih_l0 f4 [40]
0	0xbefc93dd	-0.4933156
1	0xbec990bb	-0.39368233
2	0x40133a61	2.3004382
3	0x3e8c12a2	0.27357966
4	0xbdbe3ad1	-0.09288562
5	0xbe63e714	-0.22256118
6	0x3f612734	0.87950444
7	0x3e737196	0.23773798
8	0x4048ca16	3.1373343
9	0x3ea8928d	0.3292431
10	0xbf26f354	-0.6521504
11	0xbeec5de3	-0.4616538
12	0x40032142	2.048905
13	0xbe52dd25	-0.20592172
14	0xbf573a12	-0.84072983
15	0x3d243272	0.04008717
16	0xbf9ed78d	-1.2409531
17	0xbea35c44	-0.3190633
18	0xbfacb8e2	-1.3493922
19	0xc05eb51c	-3.479804
20	0xc0598fc7	-3.3994005
21	0x3faf1e0f	1.3681048
22	0x4099dac5	4.8079553
23	0x401f3fba	2.4882646
24	0x3fe89565	1.8170592
25	0x3d2ce38e	0.0422092
26	0xc053be96	-3.3085074
27	0xbfd7c027	-1.6855515
28	0x40f7774d	7.733313
29	0xc03e61aa	-2.974711
30	0xbed0a428	-0.4075024
31	0xbf6e9e11	-0.9320994
32	0x40107246	2.2569747
33	0xbe31a461	-0.17347862
34	0x3efba1d2	0.49146897
35	0x3dac56d5	0.084149994
36	0x3f666e83	0.9001238
37	0xbcbfa23d	-0.02339279
38	0x40014ddf	2.0203779
39	0x4005e6ec	2.0922194

bias_hh_l0 f4 [40]
0	0xbdee4a86	-0.11635308
1	0xbf5e750f	-0.8689737
2	0x402a5cdb	2.6619174
3	0x3e49bcef	0.19700979
4	0x3e220ef1	0.15826012
5	0xbf09bb5f	-0.5380153
6	0x3f4dea44	0.80435586
7	0x3eae50a7	0.34045908
8	0x405b508d	3.4267914
9	0x3f446500	0.76716614
10	0xbf24f521	-0.6443654
11	0xbf3f22a7	-0.7466225
12	0x3ff66cef	1.9251994
13	0xbee5a635	-0.44853368
14	0xbf8c98fe	-1.098419
15	0xbca6dd0a	-0.020369072
16	0xbf5de4d2	-0.8667728
17	0xbe6e7ec8	-0.2329055
18	0xbfde0988	-1.7346659
19	0xc04be5ae	-3.1858935
20	0xc073005e	-3.7968974
21	0x3fb02241	1.3760453
22	0x408965f7	4.293697
23	0x400f7104	2.241273
24	0x3fe5e783	1.7961277
25	0xbe943f29	-0.28954437
26	0xc04e4755	-3.2231038
27	0xbff2deea	-1.8974278
28	0x40fdcea3	7.931474
29	0xc037af56	-2.8700767
30	0xbf06e21b	-0.5268876
31	0xbf36a2f1	-0.7134238
32	0x3fdc0db4	1.7191682
33	0xbe61c3dd	-0.22047372
34	0x3ecdf5e9	0.40226677
35	0xbef843fe	-0.48489374
36	0x3f7459fe	0.9544982
37	0xbead31fa	-0.33827192
38	0x3fddd009	1.7329112
39	0x40174de5	2.3641293

weight f4 [2, 10]
0	0xbfa0deae	-1.2567956
1	0xbe5a4787	-0.21316348
2	0x40b59df6	5.6755323
3	0x3ff5b154	1.9194741
4	0x40960ae8	4.6888313
5	0xbfc4cbb0	-1.537466
6	0xbfb78306	-1.433686
7	0xbfc4b5a6	-1.5367935
8	0x40d62442	6.691926
9	0xc08959b5	-4.2922006
10	0x3f8173b1	1.0113431
11	0x3d84a3e6	0.06476574
12	0xc0ac811c	-5.3907604
13	0xbff6eba5	-1.9290663
14	0xc09b9cec	-4.8629055
15	0x3f83f9d8	1.0310621
16	0x3fe1af91	1.7631704
17	0x3fc73887	1.5564126
18	0xc0e0c744	-7.0243244
19	0x408be15f	4.371261

bias f4 [2]
0	0x41154055	9.328206
1	0xc1166847	-9.400458
